models/trained_CNN_CIFAR.pth (torch, 42149 bytes, 10 tensors)

conv_block1.0.weight f4 [10, 3, 3, 3]
0	0x3d930477	0.07178586
1	0xbd56dbb9	-0.052455638
2	0xbbf6277a	-0.00751203
3	0x3e44e315	0.1922725
4	0x3e290e1e	0.16509292
5	0x3dd217f7	0.10258477
6	0x3d94f72b	0.07273706
7	0xbe2b1770	-0.1670816
8	0xbdc3e8cc	-0.09565887
9	0x3d99f7b3	0.07517948
10	0xbe4a8116	-0.19775805
11	0xbeeb05a1	-0.45902732
12	0x3ea1e79f	0.31622025
13	0x3d2d162c	0.042257473
14	0xbe9123bd	-0.2834758
15	0x3d0a9f7b	0.0338435
16	0xbd1eb908	-0.03875068
17	0xbdbec689	-0.09315211
18	0x3ca3c48d	0.019991184
19	0x3d172b8d	0.036906768
20	0xbdc89ee6	-0.097959325
21	0x3ef2195a	0.47284967
22	0x3d1333f1	0.035938207
23	0xbe2cdb61	-0.16880561
24	0x3eca322f	0.39491412
25	0x3d55d678	0.052206486
26	0xbe8ec804	-0.27886975
27	0xbbdb726c	-0.0066969898
28	0xbe1f373e	-0.15548417
29	0xbd9c94cb	-0.076455675
30	0xbe2f12b3	-0.17096977
31	0x3cfbc308	0.030732647
32	0xbb8efce4	-0.004363643
33	0xbdb56ff4	-0.08859244
34	0x3d21ff07	0.039549854
35	0x3ddbf2cc	0.10739669
36	0x3e009a02	0.1255875
37	0x3cce7573	0.025202489
38	0xbe1b7cde	-0.15184352
39	0x3d302321	0.04300225
40	0x3e105f02	0.14098743
41	0x3e08e674	0.13369161
42	0xbd57d0b1	-0.052689258
43	0x3debac06	0.1150742
44	0x3cf2692d	0.029591167
45	0x3cef6305	0.02922202
46	0x3dabc093	0.0838634
47	0x3c8cf3b7	0.017206056
48	0x3df8ea99	0.12154121
49	0xbd1db027	-0.03849807
50	0x3e49b783	0.1969891
51	0xbe4e273e	-0.20132157
52	0x3d6dd2f5	0.058062512
53	0xbd0c6d1d	-0.034283746
54	0xbd58118f	-0.05275112
55	0xbd83614e	-0.06415044
56	0x3e565289	0.20929922
57	0xbe5af550	-0.21382642
58	0xbd9a2fc1	-0.075286396
59	0x3e00687e	0.1253986
60	0xbd707383	-0.05870391
61	0x3e39b445	0.18135174
62	0x3cbe10f6	0.023201447
63	0xbe657634	-0.22408372
64	0xbd88cff4	-0.06680289
65	0x3d89bb59	0.06725187
66	0xbe3c16f4	-0.18368131
67	0x3d23f5bc	0.040029272
68	0x3e2873b0	0.16450381
69	0x3d0d8778	0.03455302
70	0x3e008a6a	0.12552801
71	0x3d4e59dc	0.050378665
72	0xbdd87705	-0.10569576
73	0x3e1cfb6c	0.15330285
74	0x3d97c95d	0.07411454
75	0xbe2bce5f	-0.16777943
76	0xbdd28dbe	-0.102809414
77	0x3e7fbc50	0.2497418
78	0xbdfe3ce2	-0.12413956
79	0xbd9147f4	-0.07093802
80	0x3b99aeaa	0.004690011
81	0x3cd9c27f	0.026582
82	0x3ea1e751	0.31621793
83	0x3d622933	0.055215072
84	0x3e9327a3	0.28741178
85	0x3e916a29	0.28401306
86	0x3dc700fb	0.09716984
87	0x3c1d01dd	0.009582964
88	0x3e37c458	0.17945993
89	0xbdea7bba	-0.1144938
90	0xbe121084	-0.14264113
91	0x3e44ffb0	0.19238162
92	0x3d172767	0.03690281
93	0xbe45936b	-0.19294517
94	0xbdc33aeb	-0.09532722
95	0xbe6cb875	-0.2311724
96	0xbe1a153b	-0.15047161
97	0x3d6989e9	0.057016287
98	0xbe53e9ce	-0.20694658
99	0x3e0b04f5	0.1357611
100	0xbddeca51	-0.108784325
101	0x3d5edf40	0.054412127
102	0x3ddbb5fd	0.10728071
103	0x3d01162a	0.031515278
104	0xbe06af3e	-0.13152787
105	0xbe48b37a	-0.19599715
106	0xbdaff0b7	-0.085908346
107	0xbc59a931	-0.013284967
108	0xbcd50795	-0.026004592
109	0xbd09181e	-0.033470266
110	0x3e9599a2	0.29218775
111	0xbdeb8784	-0.11500457
112	0xbdc2bd97	-0.09508818
113	0x3e82ce6a	0.25548106
114	0xbb960f6a	-0.004579474
115	0xbe5ff3a8	-0.21870291
116	0xbdfe221f	-0.12408852
117	0x3cb08798	0.021549031
118	0x3dfddb2e	0.12395321
119	0x3e2e01ab	0.16992824
120	0xbd4fe555	-0.050755817
121	0xbe42b470	-0.19014144
122	0xbddeeb63	-0.1088474
123	0xbddd6441	-0.108101375
124	0xbe5598ca	-0.20859066
125	0xbe8bdcf5	-0.27317014
126	0x3e5c6a3c	0.215249
127	0x3d802159	0.062563606
128	0x3dba8510	0.09107411
129	0x3a8dd258	0.0010820134
130	0x3dbb6104	0.09149364
131	0x3e40a9e6	0.18814811
132	0x3cfa4fa9	0.030555563
133	0xbe49166f	-0.19637464
134	0x3d6f135e	0.05836808
135	0x3e638452	0.22218445
136	0x3df22b0b	0.11824616
137	0xbe37a612	-0.17934445
138	0x3e258358	0.16163385
139	0x3df2e044	0.118591815
140	0xbe17bb09	-0.14817442
141	0xbe05a9fa	-0.13053122
142	0x3c515c56	0.012778362
143	0x3d97ab7d	0.07405756
144	0x3e6a7ab4	0.2289837
145	0xbd4fa68f	-0.050695952
146	0x3cd8dd0b	0.026472589
147	0x3d056fda	0.032577373
148	0xbd3be9b1	-0.045877162
149	0xbd9169f8	-0.0710029
150	0x3dbe9831	0.09306372
151	0x3e3b2694	0.18276435
152	0x3e31d9e9	0.17368282
153	0xbdb693a6	-0.089148805
154	0xbe586705	-0.21133049
155	0xbdf8b567	-0.12143975
156	0xbe30ea95	-0.17276986
157	0xbdfca4e1	-0.12336136
158	0xbe5ced79	-0.21574964
159	0xbe613508	-0.21992886
160	0x3e01c4be	0.12672707
161	0x3ddac1f8	0.10681528
162	0x3ba86211	0.0051386436
163	0xbdbb8860	-0.09156871
164	0x3df3f187	0.11911302
165	0xbe27b293	-0.16376714
166	0x3e617a53	0.22019319
167	0xbe3267db	-0.1742243
168	0x3e1ad671	0.15120865
169	0x3c35808f	0.011078014
170	0xbdbe393b	-0.092882596
171	0xbe14bf51	-0.14526106
172	0x3de27813	0.110580586
173	0x3df43ebe	0.119260296
174	0xbd52cfd8	-0.051467746
175	0x3e82ee25	0.25572315
176	0x3e045ee8	0.12926829
177	0xbe84ee3a	-0.25963002
178	0xbdbaa87a	-0.091141656
179	0xbe689e41	-0.22716619
180	0xbd2c7810	-0.042106688
181	0xbdce6555	-0.10077921
182	0x3e701957	0.23447166
183	0x3dbf9aa9	0.09355671
184	0x3e0422d3	0.1290391
185	0x3dbeeddc	0.09322712
186	0x3c3024d6	0.01075097
187	0xbd74a8b6	-0.059731208
188	0x3dd5bc90	0.10436356
189	0x3e480526	0.19533214
190	0x3d94820f	0.07251369
191	0x3da25c45	0.07927755
192	0xbd682cc8	-0.05668333
193	0x3e1fa11f	0.15588807
194	0x3e721238	0.23639762
195	0xbe347ebf	-0.17626475
196	0x3e7535b2	0.23946264
197	0xbd30282b	-0.043007057
198	0xbeaa1401	-0.33218387
199	0xbe187839	-0.14889611
200	0xbd97f2c2	-0.07419349
201	0xbd3293fc	-0.04359816
202	0xbe16821b	-0.14698069
203	0x3e707a80	0.2348423
204	0xbe946ed4	-0.28990805
205	0xbe232b08	-0.15934384
206	0xbe0d17f1	-0.13778664
207	0xbdc3b237	-0.09555476
208	0xbda35337	-0.07974856
209	0x3dc7c1d6	0.09753768
210	0xbe023cc1	-0.12718488
211	0xbdc7f801	-0.097641
212	0x3d156a09	0.036478076
213	0xbe1b6682	-0.15175822
214	0x3e03c73c	0.1286897
215	0x3e54b04c	0.20770377
216	0x3ce85274	0.02835963
217	0xbe38fd74	-0.18065435
218	0x3ba8aed0	0.0051477924
219	0xbe19ce57	-0.15020119
220	0xbc5eb82b	-0.013593714
221	0x3dba1f83	0.09088042
222	0xbd56cde0	-0.05244243
223	0x3e9d6ccd	0.3074707
224	0xbded90ce	-0.11599885
225	0xbe25a69a	-0.16176835
226	0xbdaa7bfe	-0.08324431
227	0xbe3f6f8e	-0.18694898
228	0xbccd3ba3	-0.025052851
229	0x3db4d19a	0.08829041
230	0xbc109dd6	-0.0088266935
231	0x3e6500ac	0.22363538
232	0x3e8d941e	0.27652067
233	0xbd9cbb1f	-0.07652878
234	0x3d91945b	0.07108375
235	0xbe0673c4	-0.13130099
236	0x3d53ca7e	0.051706783
237	0xbdaf57bf	-0.08561658
238	0xbd9b3edc	-0.07580349
239	0xbc331425	-0.010930096
240	0x3e942efa	0.2894209
241	0x3e96c708	0.29448724
242	0xbe36db46	-0.17857084
243	0xbe3da8e9	-0.18521465
244	0xbd006499	-0.031345937
245	0x3de006f2	0.10938825
246	0xbe42c9fc	-0.19022363
247	0xbdcdb6bc	-0.100446194
248	0x3c9196b9	0.017772065
249	0xbd1d0081	-0.03833056
250	0xbd5ac06f	-0.053406175
251	0xbdb81729	-0.089887924
252	0xbdcf9623	-0.10136058
253	0xbe353c27	-0.17698728
254	0x3d21a1ac	0.039460823
255	0x3d83fa08	0.06444174

conv_block1.0.bias f4 [10]
0	0x3da8f488	0.08249766
1	0xbd39bdbe	-0.045346968
2	0x3db26132	0.08709945
3	0xbcc33478	-0.02382873
4	0x3e4ddbda	0.20103398
5	0x3db28436	0.087166235
6	0xbc236730	-0.009973332
7	0x3e0de133	0.13855438
8	0x3d208d84	0.03919746
9	0x3c59d2bf	0.013294875

conv_block1.2.weight f4 [10, 10, 3, 3]
0	0xbdc880d8	-0.097902
1	0xbdd11ff7	-0.10211175
2	0x3da33a3f	0.07970094
3	0xbd656bc7	-0.056010988
4	0xbbcd2730	-0.006260775
5	0x3df5af02	0.11996271
6	0x3d77e571	0.060521547
7	0xbca4aa33	-0.020100689
8	0xbdd378e1	-0.1032579
9	0x3e172e78	0.1476382
10	0x3d4006a1	0.04688132
11	0xbd9be92c	-0.076128334
12	0x3d6aa6ed	0.0572881
13	0x3d3a2617	0.04544648
14	0xbd74853d	-0.05969738
15	0x3bbd85b3	0.0057837605
16	0xbdc1ba78	-0.09459394
17	0xbc51dccf	-0.0128089925
18	0x3dd15475	0.10221187
19	0x3ecc705d	0.39929476
20	0x3d685638	0.05672285
21	0x3e3e67ab	0.18594234
22	0xbca110fa	-0.019661415
23	0xbeb39c70	-0.3508029
24	0xbc027047	-0.007961339
25	0xbe6c2060	-0.23059225
26	0xbeb0417c	-0.3442496
27	0xbea507d1	-0.32232526
28	0xbe68abd2	-0.22721794
29	0x3e214892	0.1575034
30	0x3d010357	0.031497326
31	0x3dae304f	0.08505308
32	0x3e8774b8	0.26456237
33	0x3ddc3748	0.107527316
34	0x3dfe814d	0.12427006
35	0xbc640606	-0.013917452
36	0xbedb0e45	-0.42784324
37	0xbeb509c7	-0.35359022
38	0xbd96f143	-0.07370236
39	0xbcd90a22	-0.02649409
40	0x3de62585	0.11237625
41	0x3e67eba0	0.22648478
42	0xbcc83ac1	-0.024442079
43	0x3d2ad675	0.04170843
44	0x3e2a25d2	0.1661599
45	0x3dcd7d15	0.10033623
46	0xbd5196ed	-0.051169325
47	0xbe471229	-0.19440521
48	0xbcab544d	-0.020914221
49	0xbeb53f1d	-0.35399714
50	0xbd4638b7	-0.04839393
51	0xbd49e56c	-0.04929106
52	0x3e3e7ccc	0.18602294
53	0x3e68b138	0.22723854
54	0xbe2b9a8d	-0.16758175
55	0x3d8ba8cd	0.068193056
56	0x3e479946	0.19492063
57	0x3d5a0da2	0.053235658
58	0x3e2039de	0.15647075
59	0x3d512d62	0.05106867
60	0x3db93330	0.09042966
61	0xbe1c2c2e	-0.15251228
62	0xbe2e712a	-0.17035356
63	0x3dc9e982	0.09858991
64	0x3e6e3b02	0.23264697
65	0xbe02b355	-0.12763722
66	0x3ce58e9f	0.028022109
67	0xbc8212dc	-0.015878133
68	0xbcd60c56	-0.02612893
69	0xbda4cbb4	-0.08046666
70	0xbe43dfd3	-0.19128351
71	0xbc84ddcf	-0.016219048
72	0x3e2ea0f6	0.17053589
73	0x3e8070d7	0.2508609
74	0xbb660dd4	-0.0035103457
75	0x3e6bef78	0.23040569
76	0xbcee53a4	-0.029092617
77	0xbe9d34e8	-0.30704427
78	0xbd9f59cd	-0.077808
79	0xbea8d7c5	-0.3297712
80	0xbe8c1b4b	-0.27364573
81	0xbd144636	-0.03619977
82	0x3df28b60	0.1184299
83	0x3db20e6b	0.08694156
84	0x3e2bc70c	0.16775149
85	0x3d5db651	0.05412895
86	0xbd05e5f0	-0.03268999
87	0x3db782d7	0.089605026
88	0xbdccf033	-0.10006752
89	0xbe66236d	-0.22474451
90	0xbd40694d	-0.046975423
91	0xbe037c3b	-0.12840359
92	0x3af0b8b1	0.0018365589
93	0xbe0204ae	-0.12697098
94	0xbe8b2848	-0.2717917
95	0x3c2768f1	0.010217891
96	0xbe13116f	-0.14362119
97	0xbe4c8149	-0.19971193
98	0x3cb3b737	0.02193795
99	0x3bc23688	0.005926911
100	0x3d6f0e1c	0.058363065
101	0x3df900ad	0.12158332
102	0xbc7cc07e	-0.015426753
103	0x3db7339b	0.0894539
104	0x3e04da3b	0.12973873
105	0x3d33f368	0.043933302
106	0x3ab95c07	0.0014141806
107	0xbc2b3fba	-0.010452205
108	0x3dc8a646	0.09797339
109	0x3bebef6d	0.0072001726
110	0xbd77195c	-0.06032692
111	0x3e569551	0.20955397
112	0x3d30a328	0.043124348
113	0xbe81b70c	-0.25334966
114	0x3e1f16f1	0.15536095
115	0xbd0db7f4	-0.03459926
116	0xbdd7c85f	-0.10536265
117	0xbd8ad20a	-0.06778343
118	0x3d8b0e44	0.0678983
119	0xbd93e4c1	-0.07221366
120	0x3e0423b1	0.1290424
121	0x3dd29cf2	0.10283841
122	0x3e39e53d	0.18153854
123	0xb9a9ef68	-0.00032412563
124	0xbd3f2311	-0.0466643
125	0x3e185151	0.1487477
126	0xbdcd9eba	-0.1004004
127	0xbe8e5ffb	-0.27807602
128	0xbd28ddff	-0.041227337
129	0x3c1daee5	0.009624218
130	0xbe2231be	-0.15839288
131	0xbe893237	-0.26796123
132	0x3e5f8be5	0.2183071
133	0xbd71f84a	-0.059074678
134	0x3d18d19a	0.037309267
135	0x3e03fbfa	0.1288909
136	0x3d517856	0.051140152
137	0x3e6876a1	0.22701503
138	0x3d2fad2e	0.042889766
139	0x3e5c3f10	0.21508431
140	0x3eaafd0b	0.3339618
141	0xbdadb60c	-0.08481988
142	0x3e15888d	0.14602871
143	0x3e565b03	0.20933156
144	0x3c279bcc	0.010230016
145	0x3da86f10	0.082243085
146	0xbbb3b827	-0.005484599
147	0xbd0353ac	-0.032062218
148	0x3dba4d58	0.090967834
149	0x3d41dbee	0.047328882
150	0x3dd33495	0.103127636
151	0x3c8e9c34	0.017408468
152	0xbdc5afd0	-0.09652674
153	0xbe3b71fb	-0.18305199
154	0xbe26a302	-0.1627312
155	0xbe680b44	-0.22660547
156	0xbd527d55	-0.051389057
157	0xbe6ff730	-0.23434138
158	0xbe23b53c	-0.15987104
159	0xbd4ed368	-0.05049458
160	0xbd10011b	-0.035157304
161	0x3e539e0c	0.20665759
162	0x3cab68fa	0.02092408
163	0x3cf3cc14	0.029760398
164	0x3df1a3a0	0.11798787
165	0xbe0615e7	-0.13094293
166	0xbdfc92a4	-0.12332657
167	0x3d61cb3d	0.055125464
168	0xbe321932	-0.17392424
169	0xbdf22d35	-0.11825029
170	0xbcaf41fb	-0.021393767
171	0x3dc083bd	0.09400127
172	0x3cabe894	0.020984925
173	0xbe007c72	-0.12547472
174	0xbe0154f5	-0.12630065
175	0xbda3b6c1	-0.07993842
176	0xbe3c3b57	-0.18382011
177	0xbac19758	-0.0014769835
178	0xbb995692	-0.0046795094
179	0xbe3dcd7e	-0.1853542
180	0x3e9d16b4	0.30681384
181	0x3e07747c	0.13228029
182	0xbf03b448	-0.5144696
183	0x3eac2ba8	0.33627057
184	0xbde10ac0	-0.109883785
185	0xbf042811	-0.51623636
186	0x3ea002cd	0.31252137
187	0xbe42eae3	-0.19034915
188	0xbea604e8	-0.32425618
189	0xbdca9d4a	-0.09893282
190	0x3d5323f7	0.05154797
191	0xbcc873d5	-0.024469296
192	0x3d7be628	0.06149879
193	0x3d1587f3	0.036506604
194	0x3da4366c	0.08018193
195	0x3cef12d4	0.029183783
196	0x3d8d01a9	0.06885082
197	0xbd8e696a	-0.069537
198	0xbeb48b6d	-0.35262623
199	0xbe530c80	-0.20610237
200	0x3e08dc73	0.13365345
201	0xbec4bfec	-0.38427675
202	0xbda1fddb	-0.07909747
203	0x3e2de0c8	0.16980278
204	0xbe704999	-0.23465575
205	0x3e2e8e21	0.17046405
206	0x3ea0aef5	0.31383482
207	0x3dd5d203	0.10440447
208	0x3dd69eff	0.10479545
209	0xbd5ab155	-0.053391773
210	0x3ca19797	0.019725604
211	0xbcb21241	-0.02173722
212	0x3d1deaf5	0.03855415
213	0x3cf2efad	0.029655302
214	0x3cf25de6	0.02958579
215	0xbdfac56f	-0.12244689
216	0xbde36f20	-0.1110518
217	0x3d90bea0	0.07067609
218	0xbdfd8343	-0.12378552
219	0xbdd18a1a	-0.10231419
220	0x3d874912	0.06605734
221	0xbdfafb70	-0.12254989
222	0x3c9fa07f	0.01948571
223	0x3eadfaab	0.33980307
224	0x3bb2f783	0.0054616346
225	0xbdb069a4	-0.08613899
226	0x3da6e001	0.08148194
227	0xbe05b410	-0.1305697
228	0x3d25e924	0.040505543
229	0x3ca1b46a	0.019739348
230	0xbdc51a02	-0.09624101
231	0x3ca1415f	0.019684492
232	0x3d1d76bc	0.038443312
233	0xbe63863c	-0.22219175
234	0x3d4ea69b	0.050451856
235	0xbe2a9f82	-0.1666241
236	0xbd0eb447	-0.034839895
237	0xbd750319	-0.059817407
238	0xbd9c2bfe	-0.07625578
239	0x3dc30b5e	0.095236525
240	0x3d965506	0.07340436
241	0xbd290a32	-0.04126949
242	0x3de26bda	0.11055727
243	0xbe70bc3c	-0.23509306
244	0xbdb8537a	-0.09000297
245	0x3e6250a9	0.22101082
246	0xbea65c0e	-0.32492107
247	0xbc181aa2	-0.0092836935
248	0x3e69b6a2	0.22823575
249	0xbdf9e9a1	-0.12202764
250	0x3e628fcc	0.22125167
251	0x3e8b693d	0.27228728
252	0x3afd7985	0.0019338584
253	0xbe38badf	-0.18040036
254	0x3d5cc061	0.053894404
255	0x3d8e53c3	0.0694957

conv_block1.2.bias f4 [10]
0	0x3d438bb3	0.04774065
1	0x3e059ef5	0.13048919
2	0x3d4dbae2	0.050227053
3	0xbba99648	-0.0051753856
4	0x3de1d800	0.11027527
5	0xbdaeb7de	-0.08531164
6	0xbd8dfa75	-0.069325365
7	0x3d9441e6	0.07239132
8	0x3d60cacf	0.054880913
9	0x3d2de676	0.042456113

conv_block2.0.weight f4 [10, 10, 3, 3]
0	0xbd737a7a	-0.059442975
1	0xbdc105b4	-0.09424916
2	0x3d935e9a	0.07195778
3	0x3e3de8ec	0.18545884
4	0x3dcd6693	0.1002933
5	0x3dec967d	0.11552141
6	0x3d7e4ed2	0.062086888
7	0x3d2a5620	0.04158604
8	0x3ddaf7a2	0.106917635
9	0x3e2335c0	0.15938473
10	0x3e2991bd	0.16559501
11	0x3dc9efe6	0.0986021
12	0xbc429e9a	-0.011878634
13	0xbd4bf65d	-0.049795497
14	0xbc46919e	-0.012119679
15	0x3d636c6f	0.055523332
16	0x3cf9bd06	0.030485641
17	0xbdf1f6a2	-0.118146196
18	0xbe0ba172	-0.13635805
19	0xbbd9fefd	-0.0066527114
20	0xbe42a9d1	-0.19010092
21	0x3e42926b	0.19001167
22	0x3eadb34f	0.33925864
23	0x3e30a327	0.17249738
24	0x3e555278	0.2083224
25	0x3de84b02	0.113424316
26	0x3dd8ee05	0.105922736
27	0xbd5356c5	-0.05159642
28	0x3c6078f2	0.013700711
29	0xbcb5063d	-0.022097701
30	0x3db0a44c	0.08625087
31	0x3caf572a	0.021403868
32	0x3e175428	0.14778197
33	0x3d15a028	0.03652969
34	0x3df4a831	0.119461425
35	0x3d20a05c	0.03921543
36	0xbe313c1e	-0.17308089
37	0xbe2bae5e	-0.16765735
38	0xbd7470b4	-0.059677795
39	0x3cdca659	0.02693479
40	0x3d800f13	0.06252875
41	0xbcfaba34	-0.030606367
42	0x3e3bf3df	0.18354748
43	0x3ebaed6a	0.36509258
44	0x3e93e41e	0.28884977
45	0xbe0b2ab9	-0.13590516
46	0x3d3062e9	0.043063078
47	0x3c4f3e50	0.012649134
48	0xbdc7d053	-0.097565316
49	0x3c7bc1f9	0.015366071
50	0x3a9fc2dd	0.0012188811
51	0xbd3bd619	-0.045858476
52	0xbca12590	-0.019671232
53	0xbdfd2f9e	-0.12362598
54	0x3e442466	0.1915451
55	0x3d6e8058	0.058227867
56	0x3dd36890	0.10322678
57	0x3e612857	0.21988045
58	0xbdb84f6f	-0.08999526
59	0xbdac34dc	-0.084085196
60	0x3e2a98b3	0.16659813
61	0x3e22f1a6	0.15912494
62	0x3d96dd65	0.073664464
63	0xbca48e84	-0.020087488
64	0xbce2c767	-0.027682973
65	0x3ccd1dee	0.025038686
66	0x3dc7ae2b	0.09750017
67	0x3e618b0a	0.22025695
68	0x3e872797	0.26397392
69	0x3d36b8d2	0.044609852
70	0x3e7667f7	0.24063097
71	0x3e0e478d	0.13894482
72	0xbd4d73e6	-0.050159357
73	0x3e0a9747	0.1353427
74	0x3decfed9	0.11572046
75	0x3c66b34e	0.0140808355
76	0x3e19bc64	0.15013272
77	0xbdbf01a0	-0.09326482
78	0x3c31a2c5	0.01084203
79	0xbc418012	-0.0118103195
80	0xbe88bf38	-0.26708388
81	0xbcdd2cac	-0.02699884
82	0xbd8be806	-0.06831364
83	0xbd44f83c	-0.048088297
84	0xbcecfa45	-0.028927932
85	0xbe0cab1b	-0.13737147
86	0xbe0fb614	-0.14034301
87	0x3dc9bbb7	0.09850257
88	0xbc8a4620	-0.016879141
89	0xbdbf9ca3	-0.09356048
90	0xbd74ea95	-0.059794027
91	0xbe3b4ccb	-0.18291013
92	0xbdca0885	-0.09864906
93	0xbe9232dc	-0.28554428
94	0x3bd13090	0.006383963
95	0x3d9d76f7	0.07688706
96	0xbeb58b3e	-0.35457796
97	0xbcf4739f	-0.029840289
98	0xbe3d82dc	-0.1850695
99	0x3c69a984	0.014261607
100	0xbbba829f	-0.005691841
101	0xbdb21b82	-0.08696653
102	0xbca017bd	-0.01954257
103	0x3d74cbad	0.059764553
104	0x3e1450ed	0.14483996
105	0xbe1e6934	-0.1546982
106	0xba6f3e22	-0.0009126385
107	0x3da324bd	0.07965992
108	0x3d6d431f	0.05792534
109	0x3dccba19	0.09996433
110	0xbdd0d3cf	-0.10196649
111	0x3e48f61e	0.19625136
112	0x3e52f180	0.20599937
113	0xbe0d371b	-0.13790552
114	0x3dfdde32	0.12395896
115	0x3db4cba2	0.088279024
116	0xbe2dfe8b	-0.16991632
117	0x3e1fa6a3	0.1559091
118	0xbcb37004	-0.021904
119	0x3d50747a	0.05089233
120	0x3e0e943b	0.13923733
121	0x3e60477c	0.21902269
122	0x3e278001	0.16357423
123	0xbd24a7c4	-0.040199056
124	0xbda23786	-0.079207465
125	0xbde223c0	-0.11041975
126	0x3d8362e9	0.0641535
127	0x3d088373	0.033328485
128	0x3e0f1af0	0.1397512
129	0x3e6076bd	0.21920295
130	0x3dd04bee	0.101707324
131	0x3bbada60	0.005702302
132	0x3c2acfe9	0.010425546
133	0xbe433f5b	-0.19067137
134	0xbf0908d1	-0.5352908
135	0xbcaefa6b	-0.021359643
136	0x3da0371e	0.07823013
137	0xbcfe22fd	-0.031022543
138	0xbde9689d	-0.113969065
139	0x3e2ab932	0.16672209
140	0x3e44d711	0.19222666
141	0xbe6c24da	-0.23060933
142	0x3ccbb571	0.024866791
143	0x3e1aca64	0.15116268
144	0xbe773c50	-0.24144101
145	0xbe4f094e	-0.20218393
146	0x3e63400a	0.22192398
147	0xbe0deb33	-0.13859253
148	0xbf078fcf	-0.5295381
149	0x3e51dab8	0.20493591
150	0xbe55e394	-0.20887595
151	0xbed44ab3	-0.4146324
152	0x3d9b0de6	0.0757101
153	0x3dacc139	0.08435292
154	0xbc023a9f	-0.007948547
155	0x3d96aff0	0.07357776
156	0x3e403080	0.18768501
157	0x3e44c6b3	0.19216423
158	0xbdcd1147	-0.10013061
159	0x3e6cbd21	0.23119022
160	0x3debb1bd	0.1150851
161	0xbe3e1284	-0.1856175
162	0x3d7d83d0	0.061893284
163	0x3db590af	0.08865487
164	0xbb66ad31	-0.0035198445
165	0x3e405586	0.18782625
166	0xbd8e8407	-0.06958776
167	0xbd8c6a9e	-0.06856273
168	0xbc456ed2	-0.012050347
169	0x3b118aa3	0.0022207878
170	0xbc086fe3	-0.008327457
171	0xbc48eb17	-0.012263081
172	0xbd19f132	-0.037583537
173	0x3d2f979d	0.0428692
174	0xbe019e86	-0.12658128
175	0x3c893bb8	0.016752109
176	0x3dca6427	0.09882384
177	0xbe3f208e	-0.18664762
178	0x39ac8cdc	0.00032911345
179	0x3e70421e	0.23462722
180	0xbd6e79db	-0.05822168
181	0xbdafa48a	-0.08576305
182	0xbd2bf0de	-0.041977756
183	0xbe18d84a	-0.14926258
184	0xbe778255	-0.24170811
185	0xbe4a94e4	-0.1978336
186	0xbccbd09d	-0.024879748
187	0xbe91e242	-0.28492934
188	0xbde6408c	-0.1124278
189	0xbd9a5bf1	-0.07537068
190	0xbbc91284	-0.0061362404
191	0x3d4c563a	0.04988692
192	0xbd37feb1	-0.044920627
193	0x3de80dc8	0.113307536
194	0x3d65109a	0.055924036
195	0x3dd16aef	0.10225474
196	0xbd1735bc	-0.03691648
197	0x3dccfbe6	0.10008983
198	0xbde9a4cf	-0.11408388
199	0x3d94b489	0.07260997
200	0xbdd535fa	-0.10410686
201	0xbd910927	-0.07081824
202	0xbd91df74	-0.071226984
203	0xbd9fbf4c	-0.07800159
204	0xbd9177bc	-0.07102916
205	0x3d6b1c97	0.057400312
206	0xbdfe4084	-0.12414649
207	0x3dbec337	0.09314578
208	0x3db5f467	0.08884507
209	0x3bc4f270	0.006010346
210	0xbd578087	-0.052612808
211	0xbe858559	-0.260783
212	0xbe1f0298	-0.15528333
213	0x3daae111	0.08343709
214	0x3e32ff84	0.17480284
215	0x3ce205b7	0.027590616
216	0x3d27a6ed	0.040930677
217	0x3d82a5dc	0.063792914
218	0x3dc88b9d	0.09792254
219	0xbd92c17d	-0.07165811
220	0xbdcb7ad0	-0.09935534
221	0xbe648fbd	-0.22320457
222	0xbe2994ab	-0.16560619
223	0xbd4af8ba	-0.04955361
224	0xbdad9bb3	-0.08476963
225	0x3d81295f	0.06306719
226	0x3cf02a46	0.029317033
227	0x3e3d834a	0.18507114
228	0xbdf28a97	-0.1184284
229	0xbdaa2751	-0.0830828
230	0x3df96b57	0.121786766
231	0x3d9c9e52	0.07647385
232	0xbdf88027	-0.12133818
233	0x3caf5f4d	0.021407748
234	0x3e0d2cb5	0.13786586
235	0x3b92880f	0.004471786
236	0xbd9649a2	-0.07338263
237	0xbd937127	-0.071993165
238	0xbe7cb1ab	-0.2467715
239	0xbf12537d	-0.57158643
240	0xbd155ad8	-0.03646359
241	0x3d8e28d1	0.06941379
242	0xbdc85258	-0.09781331
243	0x3d3fdb26	0.046839856
244	0x3d55e13a	0.052216746
245	0xbcbeec41	-0.023306014
246	0xbcc1df3e	-0.02366602
247	0x3dce7f79	0.10082907
248	0x3e0dba71	0.13840653
249	0x3e1973b7	0.14985548
250	0xbda33b89	-0.0797034
251	0xbc3f0f04	-0.011661295
252	0xbc43e7e7	-0.011957145
253	0x3ddf488a	0.109025076
254	0x3e15fe7d	0.14647861
255	0x3d862c49	0.065514155

conv_block2.0.bias f4 [10]
0	0x3dad7b16	0.084707424
1	0x3d754cf0	0.059887826
2	0xbc23c854	-0.009996492
3	0x3e5005e6	0.2031475
4	0x3dd48a25	0.103779115
5	0x3d6e9e24	0.058256283
6	0xbdb05300	-0.08609581
7	0x3e86fe90	0.2636609
8	0xbda5ac1c	-0.08089468
9	0xbdb4072a	-0.08790429

conv_block2.2.weight f4 [10, 10, 3, 3]
0	0xbd6f22ea	-0.058382906
1	0xbdba0499	-0.09082908
2	0xbe159473	-0.1460741
3	0x3d6b4982	0.05744315
4	0xbe1746d8	-0.14773118
5	0xbe46c60e	-0.1941149
6	0x3dbce53b	0.0922341
7	0xbd2753b9	-0.04085133
8	0xbdcb54ad	-0.0992826
9	0x3ea6b3a9	0.32558945
10	0x3e97dedb	0.29662213
11	0xbe798927	-0.24368726
12	0x3e6188ae	0.22024795
13	0x3e397ba6	0.18113574
14	0xbd54fda1	-0.051999692
15	0x3e0a6552	0.13515213
16	0x3e889471	0.26675752
17	0x3d95dfa4	0.07318047
18	0x3daac9b6	0.083392546
19	0xbd729443	-0.059223425
20	0xbe61af5d	-0.22039552
21	0x3d4e3199	0.05034027
22	0xbd0603e0	-0.03271854
23	0xbc9d4bc4	-0.019201167
24	0x3e188e35	0.14897998
25	0xbc331099	-0.01092925
26	0x3dd12d20	0.10213685
27	0x3dcde108	0.10052687
28	0xbc9316a1	-0.017955126
29	0x3e292a5d	0.16520067
30	0x3bd6dfdd	0.0065574483
31	0x3dad530c	0.084631056
32	0xbd2b559c	-0.04182969
33	0xbde65035	-0.11245767
34	0xbcd608d9	-0.026127266
35	0x3debd3dc	0.11515018
36	0xba8a7308	-0.0010562846
37	0x3d0060b8	0.03134224
38	0x3e0d49b8	0.13797653
39	0xbd039121	-0.032120828
40	0x3d415297	0.047197904
41	0x3b8554ce	0.0040689474
42	0xbe6859dc	-0.22690529
43	0xbe255689	-0.16146292
44	0xbd895468	-0.06705552
45	0x3e0b75f9	0.13619222
46	0xbd3b6b26	-0.04575648
47	0xbceeaa7d	-0.02913403
48	0x3d24cd93	0.040235113
49	0x3e059035	0.13043292
50	0xbb768ac7	-0.003761934
51	0x3c7131b1	0.01472132
52	0x3d9c639d	0.07636187
53	0x3d0c2fef	0.0342254
54	0xbdce9e8e	-0.10088836
55	0x3e35dc9c	0.17759937
56	0x3dd632fd	0.10458944
57	0xbdffe9a5	-0.12495736
58	0x3e194365	0.14967115
59	0xbd63cf3c	-0.055617556
60	0xbe6cca77	-0.23124109
61	0x3d1a7943	0.0377133
62	0xbd45d06f	-0.04829448
63	0x3e24805d	0.16064592
64	0xbdbece9c	-0.09316751
65	0xbe9eba52	-0.31001526
66	0xbc52a64b	-0.01285703
67	0xbe7ddeca	-0.24792019
68	0xbe8939e8	-0.2680199
69	0xbc2e9dc7	-0.010657734
70	0xbe80cfec	-0.25158632
71	0xbe6db0df	-0.23212002
72	0xbdb3d006	-0.08779912
73	0xbdb16dd0	-0.08663523
74	0x3db16955	0.086626686
75	0xbc1e3835	-0.0096569555
76	0x3d86b9c6	0.06578402
77	0xbcbc4689	-0.022982853
78	0x3b8ff6fa	0.0043934556
79	0xbcb54c8d	-0.022131229
80	0x3d359641	0.044332746
81	0x3db89ec5	0.09014658
82	0xbe565fcc	-0.20934981
83	0xbdd85c88	-0.10564524
84	0xbda215c9	-0.079143114
85	0xbd51aa82	-0.051188
86	0xbdaa0869	-0.08302385
87	0xbda1bc50	-0.07897246
88	0xbe709716	-0.23495135
89	0xbec5577c	-0.38543308
90	0x3d812e44	0.063076526
91	0xbdaf21b5	-0.08551351
92	0x3d1af4f7	0.037831273
93	0xbc754561	-0.0149701545
94	0x3db4cfe5	0.08828715
95	0xbd851e77	-0.06499951
96	0x3dca780c	0.098861784
97	0xbd6ebf71	-0.05828804
98	0x3d594e66	0.053053282
99	0xbe98f0ae	-0.29871124
100	0xbe9cafee	-0.30602974
101	0xbe3b625e	-0.18299243
102	0xbe8d4c1e	-0.27597135
103	0xbe7f6ff8	-0.24945056
104	0xbdd661e2	-0.104678884
105	0x3d1d1b4d	0.038356114
106	0x3d2961fb	0.041353207
107	0xbdb63c25	-0.088981904
108	0x3c9d99a6	0.019238304
109	0xbe16cdd7	-0.14726959
110	0xbde86b68	-0.11348611
111	0xbddb5953	-0.107103966
112	0xbc383203	-0.0112423925
113	0xbdbc786c	-0.09202656
114	0xbe4776c3	-0.19478898
115	0xbe1c16d0	-0.15243077
116	0xbd8ad499	-0.06778831
117	0x3d513d32	0.05108375
118	0x3e0a88e9	0.1352879
119	0x3d1b77f0	0.03795618
120	0x3c8700f3	0.016479945
121	0x3e46873b	0.19387524
122	0x3ce94020	0.02847296
123	0x3e4f450b	0.20241182
124	0x3d6cbdf0	0.057798326
125	0x3ded3fef	0.1158446
126	0xbe391355	-0.18073781
127	0xbe299ca0	-0.16563654
128	0xbdde581b	-0.108566485
129	0xbe522dee	-0.20525333
130	0xbdfd3d7a	-0.12365241
131	0x3ca68863	0.020328706
132	0xbe1ee9b6	-0.15518841
133	0x3ca37eef	0.019957988
134	0xbc8f4e96	-0.017493527
135	0x3d1c2a4b	0.03812627
136	0xbd39b15f	-0.04533517
137	0x3a824aea	0.0009940539
138	0x3d91e120	0.07123017
139	0x3d85966c	0.06522831
140	0x3cfc283a	0.0307809
141	0x3e34e0ed	0.17663927
142	0xbc63a45d	-0.013894168
143	0x3e27d4ce	0.16389772
144	0x3c00faf7	0.007872335
145	0xbe03a21b	-0.12854807
146	0xbd3e60c8	-0.046479017
147	0xbdf3404a	-0.118774965
148	0xbe12f02c	-0.14349431
149	0xbca1e186	-0.019760858
150	0xbd4c839a	-0.049930193
151	0x3d540d2a	0.051770367
152	0xbd09ec75	-0.03367277
153	0x3d959fd8	0.073058784
154	0xbcbe0b51	-0.023198755
155	0x3c1ab390	0.009442225
156	0x3d2aa8aa	0.041664757
157	0xbd912ecd	-0.07089005
158	0xbe0b1ccc	-0.13585204
159	0xbd4f9256	-0.050676666
160	0xbdc82005	-0.09771732
161	0xbe99efde	-0.30065817
162	0xbd3fe22e	-0.04684656
163	0xbd8d9509	-0.06913192
164	0xbc43ce4c	-0.0119510405
165	0xbd960724	-0.07325581
166	0x3ca3793b	0.019955268
167	0x3d418b43	0.04725195
168	0xbc17b933	-0.0092604635
169	0x3b82ef89	0.00399584
170	0xbd5bf3cf	-0.05369931
171	0xbd6a8306	-0.05725386
172	0x3ccdd8cf	0.025127796
173	0x3d952875	0.07283107
174	0xbd57f6eb	-0.052725714
175	0x3c8e09ff	0.01733875
176	0xbd6014a7	-0.054707196
177	0xbe3e59eb	-0.18588988
178	0xbbb4c5e7	-0.005516756
179	0xbde0d220	-0.10977578
180	0x3c08daf2	0.008352982
181	0xbd543a5f	-0.05181348
182	0xbd8bddf4	-0.068294436
183	0x3d53fb38	0.051753253
184	0x3e62c258	0.22144449
185	0x3e350ba1	0.17680217
186	0x3dbdeccf	0.09273683
187	0x3e2e5621	0.17025043
188	0xbdc61b3b	-0.096731625
189	0xbe9bfde2	-0.30467135
190	0xbefb68a0	-0.4910326
191	0xbc763f29	-0.015029707
192	0xbe5e60ad	-0.21716566
193	0x3d17cb54	0.037059143
194	0x3df86d14	0.1213018
195	0x3e77e712	0.2420924
196	0x3ebbe76e	0.36700004
197	0x3e782b11	0.24235179
198	0x3db76053	0.08953919
199	0xbd0a124e	-0.033708863
200	0x3b9857b6	0.004649128
201	0xbd954597	-0.07288664
202	0xbe039cdc	-0.12852806
203	0x3cea1401	0.028573992
204	0xbd9ecf16	-0.07754342
205	0xbcdf6f66	-0.027274799
206	0x3e453901	0.19260027
207	0xbd718f32	-0.058974452
208	0xbddda80c	-0.10823068
209	0xbe67e495	-0.22645791
210	0xbc862539	-0.016375171
211	0xbe296b6a	-0.16544881
212	0xbdb86f5b	-0.09005614
213	0x3d75b665	0.059988398
214	0xbe00b47f	-0.12568854
215	0x3db81e2a	0.08990128
216	0x3d4abbe0	0.049495578
217	0xbd26b4e4	-0.040699854
218	0x3e1ef4d2	0.15523079
219	0xbc97c74f	-0.018527655
220	0xbea1710f	-0.3153157
221	0xbe17ea9d	-0.14835592
222	0xbdd3b8ae	-0.10337959
223	0xbe0ee041	-0.13952734
224	0x3db37611	0.08762754
225	0x3a5c1bfb	0.00083965034
226	0x3e1fb5eb	0.1559674
227	0x3cd173f0	0.025567979
228	0x3d5b9fe2	0.053619273
229	0x3e1518d1	0.14560248
230	0xbd99f90a	-0.075182036
231	0x3e6ef414	0.23335296
232	0x3e0a23c8	0.13490212
233	0x3d71e16e	0.059052877
234	0x3d92cffa	0.07168575
235	0xbd863a92	-0.0655414
236	0xbcd7f5c0	-0.0263623
237	0x3d4973e4	0.049182788
238	0xbe20f79f	-0.1571946
239	0xbc5b3852	-0.013380127
240	0xbe4e1f04	-0.20129019
241	0xbd2ece16	-0.042677008
242	0xbd130b58	-0.03589949
243	0x3b076ef3	0.0020665496
244	0xbd923472	-0.071389094
245	0xbd6ed016	-0.058303915
246	0xbd076291	-0.033052985
247	0xbdb4df4e	-0.088316545
248	0xbe162ffd	-0.14666744
249	0xbe53cfe4	-0.20684773
250	0xbe2c5ec9	-0.16833033
251	0xbe725a3b	-0.23667233
252	0x3d69bc14	0.05706413
253	0xbd4b28ea	-0.049599566
254	0x3d87a97f	0.06624126
255	0x3d01f80d	0.0317307

conv_block2.2.bias f4 [10]
0	0xbd99ed2a	-0.075159386
1	0x3e0f7f1a	0.14013329
2	0x3de7287b	0.11287018
3	0xbe398b6e	-0.18119594
4	0x3d6d7bda	0.057979442
5	0x3e844206	0.25831622
6	0x3d53e84e	0.051735215
7	0xbc8373fc	-0.016046517
8	0xbda5cef1	-0.080961116
9	0xbe3e1748	-0.18563569

classifier.1.weight f4 [10, 640]
0	0x3c5daa1e	0.013529329
1	0xbd233730	-0.039847553
2	0xbbeebb98	-0.0072855465
3	0x3d44e490	0.048069537
4	0x3d279f62	0.040923484
5	0x3cc27b06	0.023740303
6	0xbd0cc7dd	-0.034370292
7	0x3cc9e8f3	0.024647212
8	0xbc8a00f8	-0.016846165
9	0x3d822418	0.063545406
10	0x3d9bc23b	0.07605406
11	0xbc2eef2d	-0.010677141
12	0xbaa61cf5	-0.0012673425
13	0xbdab6d37	-0.083704405
14	0xbc7f929c	-0.015598919
15	0x3c785351	0.015156583
16	0x3d379d5e	0.04482781
17	0x3d97225d	0.07379601
18	0x3dbd5458	0.09244603
19	0xbd3255d9	-0.043538902
20	0xbd7c4cb9	-0.061596606
21	0xbd177f2a	-0.036986507
22	0xbac728e6	-0.0015194684
23	0xbd1320f7	-0.03592011
24	0xbc35bbb9	-0.01109212
25	0x3b939180	0.004503429
26	0xbd194fe9	-0.037429724
27	0xbda0447e	-0.07825564
28	0x3b8e9bde	0.004352077
29	0xbd983268	-0.07431489
30	0xbd4fa8bc	-0.050698027
31	0xbd79b923	-0.060967576
32	0xbc842946	-0.016132962
33	0xbe059ee4	-0.13048893
34	0xbc7306db	-0.014833177
35	0xbd236450	-0.039890587
36	0xbe090cf8	-0.13383853
37	0xbe2d0f5b	-0.16900389
38	0xbe2769f6	-0.16349015
39	0xbdf8b2dd	-0.121434905
40	0xb9849432	-0.00025287416
41	0xbda6c4fa	-0.08143039
42	0xbda1aded	-0.07894502
43	0x3bc0066a	0.0058601396
44	0xbd5087ad	-0.05091064
45	0xbe1984b7	-0.14992033
46	0xbdb2655e	-0.087107405
47	0x3d676e02	0.056501396
48	0x3d46d4c1	0.04854274
49	0xbddb6b30	-0.10713804
50	0xbd3cfa0d	-0.046136905
51	0x3d339a32	0.043848224
52	0xbd56b3f3	-0.052417707
53	0x3df48022	0.11938502
54	0x3d2be1e9	0.04196349
55	0xbc902634	-0.017596342
56	0x3d3050df	0.043045875
57	0xbdff1fc6	-0.12457232
58	0xbdf1bf49	-0.11804063
59	0xbcbbbb45	-0.022916446
60	0x3d47e479	0.048801873
61	0x3dbd25e9	0.092357464
62	0xbcb64d70	-0.022253722
63	0xbdbd4830	-0.09242284
64	0xbe399e79	-0.18126859
65	0xbe7f1672	-0.24910906
66	0xbe2f8b00	-0.17142868
67	0xbe0fc8e5	-0.14041479
68	0xbe5cc6aa	-0.2156016
69	0xbe1b7c65	-0.15184171
70	0xbe02c027	-0.12768613
71	0xbe42cb32	-0.19022825
72	0xbe28c97b	-0.16483109
73	0xbdcdb14f	-0.100435846
74	0xbd8c8681	-0.06861592
75	0xbe2a23c1	-0.16615202
76	0xbdf4967e	-0.119427666
77	0xbd9bef06	-0.076139495
78	0xbcf12f88	-0.02944161
79	0xbdcb7a5c	-0.099354476
80	0xbce5bd5b	-0.028044393
81	0xbded0e8d	-0.11575041
82	0xbe1688e8	-0.14700663
83	0xbd546216	-0.051851355
84	0xbda16e35	-0.078823484
85	0xbdc737d6	-0.09727447
86	0x3bdce91f	0.0067416574
87	0xbcafaefd	-0.021445746
88	0xbd20a304	-0.039217964
89	0xbd946fc5	-0.07247881
90	0x3d088a7d	0.033335198
91	0xbd292fb2	-0.04130525
92	0xbda9b643	-0.08286717
93	0xbd2d9c65	-0.042385478
94	0x3c8eca53	0.01743046
95	0xbd2f39c8	-0.042779714
96	0xbd3ae733	-0.045630645
97	0xbddc4f9b	-0.10757371
98	0xbd5cb975	-0.053887803
99	0xbdecde6c	-0.11565861
100	0xbdb4ff38	-0.088377416
101	0xbd00a47b	-0.03140686
102	0x3c1b22fc	0.00946879
103	0x3c1c6b9b	0.0095471395
104	0xbcb69aee	-0.022290673
105	0xbdc39486	-0.09549813
106	0x3d4e5616	0.050375067
107	0xbb83214d	-0.0040017725
108	0xbbdffb5f	-0.0068353857
109	0x3cbdb0ad	0.023155535
110	0x3c45a1b1	0.012062476
111	0xbd091d6f	-0.033475336
112	0x3c63743c	0.013882693
113	0x3c347178	0.011013381
114	0x3cdaab21	0.026692929
115	0xbd2aee21	-0.041731004
116	0xbcc277cb	-0.023738762
117	0xbab6a96f	-0.0013935993
118	0x3b5e6fe3	0.0033941201
119	0xbc5c692b	-0.013452808
120	0x3cfc5909	0.030804174
121	0xba2a9e34	-0.00065085595
122	0xbd4a83cb	-0.049442094
123	0xbd80e034	-0.06292763
124	0xbcb2fc3d	-0.021848792
125	0xbdcf6832	-0.101272956
126	0xbc8f8f9f	-0.017524539
127	0x3c976408	0.018480316
128	0xbe46ca4e	-0.1941311
129	0xbeb22408	-0.34793115
130	0xbe6178fc	-0.22018808
131	0xbd330b3b	-0.043711882
132	0x3d424b90	0.047435343
133	0x3d449910	0.047997534
134	0x3c9daea0	0.019248307
135	0x3d82a5bc	0.063792676
136	0xbd19dfcc	-0.037566945
137	0xbe6c382b	-0.23068301
138	0xbe29537c	-0.16535753
139	0xbd30f420	-0.043201566
140	0x3d84c1af	0.06482255
141	0x3e1113fd	0.14167781
142	0x3e1bb150	0.15204358
143	0x3e297879	0.16549863
144	0xbda644e6	-0.0811861
145	0xbe177712	-0.14791515
146	0xbe2c09e9	-0.16800655
147	0x3c93f3d0	0.018060595
148	0xbcf1239b	-0.029435923
149	0x3cee5282	0.029092077
150	0x3dcd91d8	0.10037583
151	0x3e48a1e3	0.19593005
152	0xbdae63a6	-0.085151
153	0xbdc0f47a	-0.0942163
154	0xbd930992	-0.0717956
155	0x3c87374a	0.016505856
156	0xbce39623	-0.027781552
157	0xbd07991d	-0.033105005
158	0xbd0b6af8	-0.03403756
159	0xbb547d05	-0.003242315
160	0xbbee10e1	-0.0072651957
161	0xbcc946b8	-0.024569854
162	0x3d1532b2	0.0364253
163	0xbccc9173	-0.0249717
164	0x3d08d7e2	0.033409007
165	0xbe097e83	-0.13427167
166	0xbe3571f6	-0.17719254
167	0xbdee460b	-0.116344534
168	0x3b4253c3	0.0029651977
169	0xbd23d8a5	-0.04000153
170	0x3dd1884c	0.10231075
171	0x3e00b8bf	0.12570475
172	0xbb479a03	-0.0030456788
173	0xbd3a3752	-0.045462914
174	0xbe2fdfa1	-0.17175151
175	0xbe4f4078	-0.20239437
176	0x3b1e836f	0.0024187227
177	0x3bd9e0d8	0.006649118
178	0x3da72bd4	0.081626564
179	0x3dfd7c91	0.12377275
180	0x3dbae545	0.09125761
181	0xbcb2ff70	-0.021850318
182	0xbe0d19c9	-0.13779368
183	0xbe307206	-0.17230996
184	0xbc4af3ad	-0.012387198
185	0xbd8456c1	-0.064618595
186	0xbdcf70d6	-0.101289436
187	0xbd99cda5	-0.07509927
188	0xbdbf8124	-0.093508035
189	0xbd7268e4	-0.059182063
190	0xbe1a6a2f	-0.15079568
191	0xbd55ffbb	-0.052245837
192	0x3c86c8a9	0.016453104
193	0xbe0676eb	-0.13131301
194	0xbe1a2c45	-0.1505595
195	0xbd85f0c0	-0.0654006
196	0xbc9af09d	-0.018913561
197	0xbd192d46	-0.03739669
198	0xbbcebb85	-0.006308975
199	0x3b435673	0.0029806166
200	0xbd9fd7c8	-0.07804829
201	0xbda00238	-0.07812923
202	0xbe2a2e5a	-0.16619244
203	0xbddb8e3a	-0.10720487
204	0xbdb065dd	-0.08613179
205	0xbda96d83	-0.08272841
206	0x3d08ff20	0.03344643
207	0x3da7fda2	0.082026735
208	0xbdadc269	-0.084843464
209	0xbdd204c1	-0.10254813
210	0xbdf046b2	-0.11732234
211	0xbda232f2	-0.07919873
212	0xbdddd1b1	-0.10831011
213	0xbdd11413	-0.10208907
214	0x3da7be8e	0.08190642
215	0x3d1fd862	0.039024718
216	0xbcdeb850	-0.027187496
217	0x3d8a5c9d	0.06755946
218	0x3dd8b8ff	0.1058216
219	0x3de49c50	0.11162627
220	0x3dc927d5	0.098220505
221	0x3dfd2f18	0.12362498
222	0x3e0eec21	0.13957264
223	0x3d51ae03	0.05119134
224	0xbc790077	-0.015197865
225	0x3db393dd	0.08768437
226	0x3e5140db	0.20434897
227	0x3e2d0d87	0.16899692
228	0x3dff7192	0.12472834
229	0x3e15b00d	0.1461794
230	0x3d95828c	0.073002905
231	0x3d3c2b65	0.04593982
232	0x3d9f340b	0.07773598
233	0x3dd6059f	0.10450291
234	0x3e09e3d8	0.13465822
235	0x3d2a8106	0.041626953
236	0x3c94d18b	0.018166324
237	0xbc8f8bd4	-0.01752273
238	0x3cb70c68	0.022344783
239	0xbc866002	-0.016403202
240	0x3da1238a	0.07868107
241	0x3cdc3f2e	0.026885595
242	0x3d5e0d36	0.054211818
243	0xbc80b6dc	-0.015712194
244	0xbd04a79c	-0.032386407
245	0x3d27b322	0.04094232
246	0x3d12efa3	0.035873067
247	0x3dbb6aec	0.09151253
248	0x3cceb5c6	0.02523316
249	0xbd8217c8	-0.06352192
250	0xbdb705a4	-0.08936623
251	0xbd7ddb8f	-0.061976966
252	0xbdf78089	-0.12085063
253	0xbd7c4ba8	-0.06159559
254	0xbd9f410e	-0.0777608
255	0xbd84ad58	-0.06478375

classifier.1.bias f4 [10]
0	0xbda8cad6	-0.08241813
1	0xbe532c7d	-0.2062244
2	0xba78fe73	-0.0009498365
3	0x3de62f6f	0.11239516
4	0x3e7d31aa	0.24725977
5	0xbd6c0f88	-0.057632
6	0x3c4f1f5e	0.012641756
7	0xbded2fb4	-0.11581364
8	0x3e333c73	0.17503528
9	0xbda64e31	-0.081203826
